…
t', 'base_model.model.model.layers.35.mlp.up_proj.weight', 'base_model.model.model.layers.35.mlp.down_proj.weight', 'base_model.model.model.layers.35.input_layernorm.weight', 'base_model.model.model.layers.35.post_attention_layernorm.weight', 'base_model.model.model.norm.weight', 'base_model.model.lm_head.weight'], unexpected_keys=[])

 number of missing keys: 399

 number of unexpetcted keys: 0
Model loaded from outputs/qwen3-8b-softmoa-the8-commonsense-qa
Model: PeftModelForCausalLM(
  (base_model): SoftMoAModel(
    (model): Qwen3ForCausalLM(
      (model): Qwen3Model(
        (embed_tokens): Embedding(151936, 4096)
        (layers): ModuleList(
          (0-35): 36 x Qwen3DecoderLayer(
            (self_attn): Qwen3Attention(
              (q_proj): Linear(in_features=4096, out_features=4096, bias=False)
              (k_proj): Linear(in_features=4096, out_features=1024, bias=False)
              (v_proj): Linear(in_features=4096, out_features=1024, bias=False)
              (o_proj): Linear(in_features=4096, out_features=4096, bias=False)
              (q_norm): Qwen3RMSNorm((128,), eps=1e-06)
              (k_norm): Qwen3RMSNorm((128,), eps=1e-06)
              (lora_Q): LoraLayer(
                (lora_A): Linear(in_features=4096, out_features=8, bias=False)
                (lora_B): Linear(in_features=8, out_features=4096, bias=False)
              )
              (lora_K): LoraLayer(
                (lora_A): Linear(in_features=4096, out_features=8, bias=False)
                (lora_B): Linear(in_features=8, out_features=1024, bias=False)
              )
              (lora_V): LoraLayer(
                (lora_A): Linear(in_features=4096, out_features=8, bias=False)
                (lora_B): Linear(in_features=8, out_features=1024, bias=False)
              )
              (lora_O): LoraLayer(
                (lora_A): Linear(in_features=4096, out_features=8, bias=False)
                (lora_B): Linear(in_features=8, out_features=4096, bias=False)
              )
            )
            (mlp): Qwen3MLP(
              (gate_proj): Linear(in_features=4096, out_features=12288, bias=False)
              (up_proj): Linear(in_features=4096, out_features=12288, bias=False)
              (down_proj): Linear(in_features=12288, out_features=4096, bias=False)
              (act_fn): SiLU()
              (lora_down): LoraLayer(
                (lora_A): Linear(in_features=12288, out_features=8, bias=False)
                (lora_B): Linear(in_features=8, out_features=4096, bias=False)
              )
            )
            (input_layernorm): Qwen3RMSNorm((4096,), eps=1e-06)
            (post_attention_layernorm): Qwen3RMSNorm((4096,), eps=1e-06)
            (p_adapter): PAdapterLayer(
              (adapter_act_fn): SiLU()
              (down_proj): Linear(in_features=4096, out_features=16, bias=True)
              (up_proj): Linear(in_features=16, out_features=4096, bias=True)
            )
            (adapter_type_router): Router(
              (w1): Linear(in_features=4096, out_features=28, bias=True)
              (w2): Linear(in_features=28, out_features=7, bias=True)
              (w3): Linear(in_features=4096, out_features=28, bias=True)
            )
          )
        )
        (norm): Qwen3RMSNorm((4096,), eps=1e-06)
        (rotary_emb): Qwen3RotaryEmbedding()
      )
      (lm_head): Linear(in_features=4096, out_features=151936, bias=False)
    )
  )
)
Results saved to outputs/qwen3-8b-softmoa-the8-commonsense-qa/validation_results.csv
Accuracy of commonsense_qa: 80.51%
Metrics saved to outputs/qwen3-8b-softmoa-the8-commonsense-qa/validation_metrics.json
